…
#############################################################
Reshaping dataset X-side dimention to be fit in the defined convolutional :

X train:
(140000, 32, 32)
140000 32 32
(140000, 32, 32, 1)

X val:
(40000, 32, 32)
40000 32 32
(140000, 32, 32, 1)

X test:
(20000, 32, 32)
20000 32 32
(20000, 32, 32, 1)
#############################################################

Model: "sequential"
_________________________________________________________________
Layer (type)                 Output Shape              Param #   
=================================================================
conv2d (Conv2D)              (None, 32, 32, 256)       6656      
_________________________________________________________________
conv2d_1 (Conv2D)            (None, 32, 32, 256)       1638656   
_________________________________________________________________
max_pooling2d (MaxPooling2D) (None, 16, 16, 256)       0         
_________________________________________________________________
dropout (Dropout)            (None, 16, 16, 256)       0         
_________________________________________________________________
conv2d_2 (Conv2D)            (None, 16, 16, 256)       1638656   
_________________________________________________________________
conv2d_3 (Conv2D)            (None, 16, 16, 256)       1638656   
_________________________________________________________________
max_pooling2d_1 (MaxPooling2 (None, 8, 8, 256)         0         
_________________________________________________________________
dropout_1 (Dropout)          (None, 8, 8, 256)         0         
_________________________________________________________________
conv2d_4 (Conv2D)            (None, 8, 8, 256)         1638656   
_________________________________________________________________
conv2d_5 (Conv2D)            (None, 8, 8, 256)         1638656   
_________________________________________________________________
max_pooling2d_2 (MaxPooling2 (None, 4, 4, 256)         0         
_________________________________________________________________
dropout_2 (Dropout)          (None, 4, 4, 256)         0         
_________________________________________________________________
conv2d_6 (Conv2D)            (None, 4, 4, 256)         1638656   
_________________________________________________________________
conv2d_7 (Conv2D)            (None, 4, 4, 256)         1638656   
_________________________________________________________________
max_pooling2d_3 (MaxPooling2 (None, 2, 2, 256)         0         
_________________________________________________________________
dropout_3 (Dropout)          (None, 2, 2, 256)         0         
_________________________________________________________________
flatten (Flatten)            (None, 1024)              0         
_________________________________________________________________
dense (Dense)                (None, 1024)              1049600   
_________________________________________________________________
dropout_4 (Dropout)          (None, 1024)              0         
_________________________________________________________________
dense_1 (Dense)              (None, 1024)              1049600   
_________________________________________________________________
dropout_5 (Dropout)          (None, 1024)              0         
_________________________________________________________________
dense_2 (Dense)              (None, 1024)              1049600   
_________________________________________________________________
dropout_6 (Dropout)          (None, 1024)              0         
_________________________________________________________________
dense_3 (Dense)              (None, 1024)              1049600   
_________________________________________________________________
dropout_7 (Dropout)          (None, 1024)              0         
_________________________________________________________________
dense_4 (Dense)              (None, 1)                 1025      
=================================================================
Total params: 15,676,673
Trainable params: 15,676,673
Non-trainable params: 0
_________________________________________________________________
Train on 140000 samples, validate on 40000 samples
Epoch 1/30
   256/140000 [..............................] - ETA: 1:17:53 - loss: 246.5265 - accuracy: 0.5234
…
