…
#############################################################
Reshaping dataset X-side dimension to be fit in the defined convolutional :

X train:
(1079999, 32, 32)
1079999 32 32
(1079999, 32, 32, 1)

X val:
(8639992, 32, 32)
8639992 32 32
(1079999, 32, 32, 1)

X test:
(1080000, 32, 32)
1080000 32 32
(1080000, 32, 32, 1)
#############################################################

Model: "sequential"
_________________________________________________________________
 Layer (type)                Output Shape              Param #   
=================================================================
 conv2d (Conv2D)             (None, 32, 32, 256)       6656      
                                                                 
 conv2d_1 (Conv2D)           (None, 32, 32, 256)       1638656   
                                                                 
 max_pooling2d (MaxPooling2D  (None, 16, 16, 256)      0         
 )                                                               
                                                                 
 dropout (Dropout)           (None, 16, 16, 256)       0         
                                                                 
 conv2d_2 (Conv2D)           (None, 16, 16, 256)       1638656   
                                                                 
 conv2d_3 (Conv2D)           (None, 16, 16, 256)       1638656   
                                                                 
 max_pooling2d_1 (MaxPooling  (None, 8, 8, 256)        0         
 2D)                                                             
                                                                 
 dropout_1 (Dropout)         (None, 8, 8, 256)         0         
                                                                 
 conv2d_4 (Conv2D)           (None, 8, 8, 256)         1638656   
                                                                 
 conv2d_5 (Conv2D)           (None, 8, 8, 256)         1638656   
                                                                 
 max_pooling2d_2 (MaxPooling  (None, 4, 4, 256)        0         
 2D)                                                             
                                                                 
 dropout_2 (Dropout)         (None, 4, 4, 256)         0         
                                                                 
 conv2d_6 (Conv2D)           (None, 4, 4, 256)         1638656   
                                                                 
 conv2d_7 (Conv2D)           (None, 4, 4, 256)         1638656   
                                                                 
 max_pooling2d_3 (MaxPooling  (None, 2, 2, 256)        0         
 2D)                                                             
                                                                 
 dropout_3 (Dropout)         (None, 2, 2, 256)         0         
                                                                 
 flatten (Flatten)           (None, 1024)              0         
                                                                 
 dense (Dense)               (None, 1024)              1049600   
                                                                 
 dropout_4 (Dropout)         (None, 1024)              0         
                                                                 
 dense_1 (Dense)             (None, 1024)              1049600   
                                                                 
 dropout_5 (Dropout)         (None, 1024)              0         
                                                                 
 dense_2 (Dense)             (None, 1024)              1049600   
                                                                 
 dropout_6 (Dropout)         (None, 1024)              0         
                                                                 
 dense_3 (Dense)             (None, 1024)              1049600   
                                                                 
 dropout_7 (Dropout)         (None, 1024)              0         
                                                                 
 dense_4 (Dense)             (None, 1)                 1025      
                                                                 
=================================================================
Total params: 15,676,673
Trainable params: 15,676,673
Non-trainable params: 0
_________________________________________________________________
Epoch 1/10
   1/4219 [..............................] - ETA: 46:43:28 - loss: 252.9316 - accuracy: 0.5117
…
